notebooks/source_model.pth (torch, 27258 bytes, 6 tensors)

features.0.weight f4 [16, 3, 3, 3]
0	0x3d4abc9d	0.049496282
1	0xbdad5cf2	-0.084649935
2	0xbe0f30b5	-0.13983424
3	0xbd87554f	-0.06608068
4	0x3e07186d	0.13192911
5	0x3e0afb6e	0.13572475
6	0xbd6bfb31	-0.0576126
7	0xbe3abbf9	-0.18235768
8	0x3e011f87	0.12609683
9	0x3df5c7b6	0.120009825
10	0x3d6ae875	0.057350595
11	0xbe2fce1b	-0.17168467
12	0xbdf6cb35	-0.120504774
13	0xbe07c070	-0.13257003
14	0xbe36508f	-0.17804168
15	0x3e09c878	0.13455379
16	0x3e37befc	0.17943949
17	0x3cde1cf8	0.027113423
18	0x3ca0b98f	0.019619731
19	0xbe2cf534	-0.16890413
20	0x3e399502	0.18123248
21	0xbe3a8d0f	-0.18217872
22	0xbd1661fe	-0.036714546
23	0xbdbfb2e2	-0.09360291
24	0x3dd363b9	0.10321755
25	0x3e007f62	0.12548593
26	0x3c32f074	0.010921586
27	0x3dcb4486	0.09925179
28	0x3e0fd8c5	0.14047535
29	0xbbf37eee	-0.0074309027
30	0xbdfdc7bf	-0.12391614
31	0xbd7f56e7	-0.062338736
32	0x3c5cedc4	0.013484422
33	0xbccd361b	-0.025050214
34	0x3e07b0da	0.13251057
35	0x3e1d6806	0.15371713
36	0xbdb02e5d	-0.08602593
37	0xbda37117	-0.079805546
38	0xbe3b352a	-0.18281999
39	0x3e379724	0.1792875
40	0x3e11f259	0.14252605
41	0x3dc86b13	0.09786048
42	0x3e2b023e	0.16700074
43	0xbdc6054b	-0.09668978
44	0xbe20dea1	-0.15709926
45	0xbc040589	-0.00805796
46	0xbda32d16	-0.07967584
47	0x3d9879da	0.07445116
48	0x3e2822c3	0.1641951
49	0xbe0c34f0	-0.13692069
50	0xbdd0b1ca	-0.101901606
51	0x3dc6abd0	0.097007394
52	0x3cbe08b2	0.023197506
53	0x3dc59042	0.096466556
54	0x3ddb23fd	0.107002236
55	0x3d5172dd	0.051134933
56	0xbce3845a	-0.027773071
57	0x3e2803ea	0.16407743
58	0x3e2f06db	0.17092459
59	0x3e19820a	0.14991012
60	0x3dd5dae6	0.10442142
61	0xbe4dba2b	-0.20090549
62	0xbb904887	-0.004403177
63	0xbbee148b	-0.0072656325
64	0x3e142636	0.14467701
65	0x3e2edbe0	0.17076063
66	0xbbff7c24	-0.007796781
67	0x3e09b429	0.13447632
68	0x3e107a3d	0.1410913
69	0xbd5f373b	-0.05449603
70	0x3d81000c	0.06298837
71	0xbd8f01aa	-0.06982739
72	0xbe3a1fcf	-0.18176197
73	0xbda2eb64	-0.079550534
74	0xbe139dd2	-0.14415672
75	0x3db3faa8	0.08788043
76	0xbb64e34a	-0.0034925514
77	0x3e0d8925	0.13821848
78	0xbe4e8d8b	-0.20171182
79	0x3ca3a0e9	0.019974189
80	0xbcc32fdc	-0.023826532
81	0xbd9e97e4	-0.077438146
82	0x3d8d9973	0.06914034
83	0x3da64c06	0.08119969
84	0xbe27c516	-0.16383776
85	0xbcd6eff7	-0.026237471
86	0x3b325057	0.002720853
87	0x3e3e281a	0.18569985
88	0x3d01895c	0.031625137
89	0x3e31ebcb	0.17375104
90	0xbd0c7e90	-0.034300387
91	0xbdeeeba0	-0.11666036
92	0x3a3c12a0	0.0007174406
93	0xb8f12936	-0.00011499452
94	0x3d4b8833	0.049690437
95	0x3ddcd90d	0.10783587
96	0xbe11f33c	-0.14252943
97	0xbac2faf6	-0.0014875818
98	0xbc6b8fbf	-0.014377533
99	0x3da6dacf	0.08147203
100	0xbc89583b	-0.016765704
101	0x3dee25e8	0.11628324
102	0x3d108aa4	0.035288468
103	0x3da5ec86	0.08101754
104	0x3c9e1ddf	0.019301353
105	0x3e12bcd8	0.1432985
106	0xbd6b2220	-0.05740559
107	0xbd87d477	-0.06632321
108	0x3e12a334	0.1432007
109	0xbd54cfc9	-0.051955972
110	0x3d88c9dd	0.06679127
111	0x3e1e4eb6	0.15459713
112	0x3c9c9867	0.01911564
113	0x3e32f3c7	0.17475806
114	0xbe02e4ad	-0.12782545
115	0xbd6d3c69	-0.05791894
116	0x3d5df57e	0.054189198
117	0xbd1d2e5e	-0.038374297
118	0x3df788f1	0.120866664
119	0xbe257e34	-0.16161424
120	0xbc9acf16	-0.018897574
121	0xbe454c5e	-0.19267413
122	0xbda95525	-0.08268193
123	0x3e0d28c2	0.13785079
124	0xbe1898e8	-0.14902079
125	0xbd84a028	-0.0647586
126	0xbe0ef75e	-0.1396155
127	0xbd016273	-0.03158803
128	0xbd9dc186	-0.07702927
129	0x3de887a8	0.113539994
130	0xbe4d0106	-0.20019922
131	0x3dfd0dc7	0.123561434
132	0x3e0ef792	0.13961628
133	0x3e0315c1	0.12801267
134	0x3e1c70f7	0.15277468
135	0xbd68008f	-0.056641158
136	0xbe1bd9b5	-0.15219767
137	0x3d57d3fa	0.05269239
138	0xbe0f53f9	-0.13996877
139	0xbe00d926	-0.12582836
140	0x3d396eae	0.045271568
141	0xbe38b853	-0.18039064
142	0x3dca7ff7	0.098876886
143	0xbe2879f3	-0.1645277
144	0xbddd4b93	-0.1080543
145	0x380fe575	3.4307555e-05
146	0xbe3462a5	-0.17615755
147	0x3de4ddae	0.111750945
148	0xbc9fa1af	-0.019486276
149	0xbbbcd822	-0.0057630697
150	0x3db683f2	0.08911885
151	0xbde988c2	-0.114030376
152	0x3de7ec41	0.11324359
153	0xbdb3ba48	-0.08775765
154	0x3e41f1d3	0.18939905
155	0x3c7c8447	0.015412397
156	0x3dac5d0a	0.08416183
157	0x3de9b2e7	0.11411076
158	0x3d949774	0.0725545
159	0xbddd33fb	-0.1080093
160	0x3d770c32	0.060314365
161	0xbd0f0af8	-0.03492257
162	0xbc0b0716	-0.008485576
163	0x3e00c3f2	0.12574747
164	0x3d843e12	0.064571515
165	0x3be2929a	0.006914449
166	0xbdbd3db4	-0.092402846
167	0x3dd7d7e1	0.105392225
168	0x3e0df271	0.13862015
169	0x3d9a0a06	0.07521443
170	0xbd1c6080	-0.038177967
171	0x3ced8d6d	0.028998101
172	0x3d8c97f6	0.06864922
173	0xbe2a3a54	-0.16623813
174	0x3bdea957	0.006795089
175	0xbdb066e4	-0.08613375
176	0xbbf2e50a	-0.0074125575
177	0x3d8472b8	0.06467193
178	0xbd96070d	-0.073255636
179	0xbd8203d8	-0.063483894
180	0x3d9e9ef2	0.0774516
181	0xbd05881d	-0.03260051
182	0xbc19a164	-0.009376857
183	0xbe1ef200	-0.15522003
184	0xbd0d1cd8	-0.034451336
185	0x3dab98d9	0.08378763
186	0x3d00c7bf	0.031440493
187	0xbdd14304	-0.1021786
188	0xbe0d3ffa	-0.13793936
189	0x3da1fe56	0.07909839
190	0xbdd74063	-0.10510328
191	0x3da52a4a	0.080647066
192	0x3e0d5a89	0.13804068
193	0xbe11f9d6	-0.14255461
194	0x3e2fb2ef	0.17158101
195	0x3e4a0b94	0.19730979
196	0x3d5a626d	0.053316522
197	0xb9d06c1c	-0.000397534
198	0xbd77b8e0	-0.060479045
199	0x3d3116e0	0.043234706
200	0x3db94232	0.09045829
201	0xbdd45637	-0.10368007
202	0xbd6483e5	-0.055789847
203	0xbdc31558	-0.09525555
204	0xbdbdf3b0	-0.09274995
205	0xbe11b363	-0.14228587
206	0xbdb1092f	-0.0864433
207	0xbe299d27	-0.16563855
208	0x3e436123	0.19080023
209	0x3d9a7429	0.07541687
210	0x3d23f5e0	0.040029407
211	0xbe3073ac	-0.17231625
212	0x3c1b8fbe	0.00949472
213	0x3db58464	0.08863142
214	0xbdd6c25c	-0.1048629
215	0xbda5a6d0	-0.080884576
216	0xbd5ef110	-0.054429114
217	0xbcdd2d0c	-0.02699902
218	0xbde45ced	-0.11150537
219	0xbcdbd82f	-0.026836483
220	0x3c6b9814	0.01437952
221	0xbdcfa6d1	-0.101392396
222	0xbe406fa4	-0.18792588
223	0x3e0d3c65	0.1379257
224	0xbe1a0ed8	-0.15044725
225	0xbd415db4	-0.047208503
226	0x3c084ee0	0.0083195865
227	0xbd0a0fdb	-0.033706527
228	0x3e1f82f3	0.15577297
229	0xbe07d0b5	-0.13263209
230	0x3e04d70b	0.12972657
231	0x3de23737	0.11045688
232	0xbe06867b	-0.13137238
233	0x3de633df	0.112403624
234	0x3d22baa9	0.039728794
235	0xbdef513b	-0.11685415
236	0x3e38213b	0.17981426
237	0x3de536d8	0.11192101
238	0xbcc159e2	-0.02360243
239	0xbdf7bad7	-0.12096184
240	0x3e2679a2	0.16257337
241	0xbcddfcde	-0.027098116
242	0xbde267b7	-0.11054938
243	0x3c846daa	0.016165573
244	0x3d576a7a	0.05259178
245	0xbe18ccef	-0.14921926
246	0xbce7026c	-0.028199397
247	0x3dc84b20	0.09779954
248	0x3e3cac54	0.18425113
249	0xbdcbdfb7	-0.099547796
250	0x3cba7c5f	0.022764383
251	0xbcdda616	-0.027056735
252	0xbcb66eae	-0.022269573
253	0x3d9cbaf0	0.07652843
254	0xbe2d8a48	-0.16947281
255	0x3d8f1326	0.06986074

features.0.bias f4 [16]
0	0xbe34ed23	-0.17668585
1	0x3d948769	0.0725239
2	0x3e1167b0	0.1419971
3	0xbc3f95a0	-0.011693388
4	0x3d4a6f24	0.0494224
5	0x3ca106a1	0.019656481
6	0x3cdcd0da	0.026955057
7	0x3de6ae1a	0.11263676
8	0x3e3c0c2e	0.18364021
9	0xbde2dd23	-0.11077335
10	0xbe395d37	-0.18101965
11	0xbdcd2aee	-0.10017954
12	0xbc0958af	-0.00838296
13	0x3dde3a03	0.108509086
14	0xb9cf56e1	-0.00039546847
15	0xbd3a2c99	-0.045452688

features.2.weight f4 [32, 16, 3, 3]
0	0xbd20d8f5	-0.039269406
1	0x3d839cf2	0.06426419
2	0xbd30f824	-0.043205395
3	0x3d925fc1	0.0714717
4	0xbd8ed74c	-0.06974658
5	0x3d41502a	0.04719559
6	0xbd99dca3	-0.07512786
7	0xbda19531	-0.07889784
8	0x3ade28ab	0.0016949376
9	0xbd5ef3f1	-0.05443186
10	0x3c5bcdef	0.013415798
11	0x3cd53d2e	0.02603015
12	0xbb244be1	-0.0025069641
13	0x3d222147	0.039582517
14	0x3d162150	0.036652863
15	0x3d5965c0	0.053075552
16	0xbbd05baf	-0.006358586
17	0xbc1355ae	-0.008992596
18	0x3cd554b8	0.026041374
19	0x3d8bcfed	0.06826768
20	0xbd62b4a7	-0.055348065
21	0xbd4e25a8	-0.05032888
22	0xbbea24c3	-0.0071454956
23	0x3d0064b3	0.031346034
24	0xbda876ac	-0.0822576
25	0x3d2bb8f4	0.041924432
26	0x3bf53d69	0.0074841273
27	0x3d1ec62f	0.03876322
28	0xbce66753	-0.02812544
29	0x3d9101e8	0.07080442
30	0xbd840cdf	-0.064477675
31	0xbd7d3fda	-0.06182847
32	0xbcdffa68	-0.027341083
33	0x3d4d0789	0.050056014
34	0xbd67f8cf	-0.056633767
35	0x3a36db24	0.00069754035
36	0xbc62faad	-0.013853711
37	0xbdb4309e	-0.087983355
38	0x3d593ec3	0.05303837
39	0x3d8253aa	0.06363614
40	0xbc9fa045	-0.019485602
41	0x3cb2ab5e	0.02181023
42	0x3d71798c	0.058953807
43	0xbdb11006	-0.08645634
44	0x39ef5ce7	0.0004565485
45	0x3d54c90b	0.051949542
46	0x3cbb440a	0.022859592
47	0x3c364f2b	0.011127274
48	0x3bef5d56	0.0073048277
49	0x3c82ba0b	0.015957853
50	0x3d178283	0.0369897
51	0xbc8131bb	-0.015770784
52	0xbc01b7f9	-0.007917398
53	0x3d42358b	0.047414344
54	0xbd5170dd	-0.051133025
55	0xbc86b757	-0.016444845
56	0x3d7a700b	0.06114201
57	0x3a5264d0	0.00080258865
58	0xbc394661	-0.011308284
59	0x3c56c4f4	0.013108481
60	0xbd117d49	-0.03551987
61	0xbd2609e8	-0.04053679
62	0x3d698440	0.05701089
63	0x3c16c654	0.009202559
64	0x3d95b15e	0.07309221
65	0x3b9f887e	0.004868566
66	0x3d9fe509	0.07807357
67	0xbcce4ce2	-0.025183145
68	0x3cb1f8f4	0.021725155
69	0xbd8ab339	-0.06772465
70	0x3d351506	0.044209503
71	0x3cb2e314	0.021836795
72	0xbdbb1f6a	-0.09136851
73	0x3d248ed1	0.040175263
74	0x3d40d7b4	0.04708071
75	0x3ca4e445	0.020128379
76	0x3c4f08a2	0.012636336
77	0x3d503cdf	0.0508393
78	0xbda9e8ab	-0.08296331
79	0x3d6c21c8	0.057649404
80	0xbda4af4d	-0.080412485
81	0xbd47f281	-0.048815254
82	0xbd964a93	-0.07338443
83	0x3c85e93b	0.016346565
84	0xbd0fdd36	-0.035123073
85	0xbd9f8a66	-0.07790069
86	0x3d0a76eb	0.033804815
87	0xbca76944	-0.020435937
88	0xbcfadab3	-0.030621862
89	0xbc0337a2	-0.008008869
90	0x3d045a11	0.032312457
91	0x3d90639b	0.07050248
92	0xbd5fcfb2	-0.054641433
93	0x3d2b3288	0.041796237
94	0xbc10df32	-0.008842276
95	0x3cf82ca0	0.030294716
96	0x3d9ccc59	0.07656164
97	0xbc8acc17	-0.01694302
98	0xbdad6a6e	-0.084675655
99	0xbdadd3b8	-0.08487648
100	0xba8e975c	-0.0010878849
101	0xbd4090d1	-0.047013108
102	0x3c5f751b	0.01363876
103	0xbbfb392f	-0.007666729
104	0x3d080951	0.03321201
105	0x3cb97815	0.022640267
106	0x3d954229	0.0728801
107	0xbd2fcd0f	-0.04292017
108	0xbc0f0be3	-0.008730861
109	0x3d04f1da	0.03245721
110	0x3d9a2554	0.07526651
111	0x3d8a1f65	0.06744269
112	0xbcf781b8	-0.030213222
113	0xbda374c7	-0.07981258
114	0x3bfb6ddf	0.0076730098
115	0xbd3aa194	-0.04556425
116	0xbc44c55d	-0.012009946
117	0xbdb24236	-0.08704035
118	0x3d3aadd8	0.045575947
119	0xbb1f5486	-0.0024311855
120	0xbda3647e	-0.07978152
121	0xbd39c0d4	-0.04534991
122	0x3da0a8b9	0.07844681
123	0xbd6becad	-0.05759876
124	0xbcf3c8fc	-0.029758923
125	0xbcb8b460	-0.022546947
126	0xbc6bd976	-0.014395108
127	0x3d0c67d2	0.0342787
128	0x3ca10f30	0.019660562
129	0xbd4dfcce	-0.05028992
130	0xbd203df7	-0.039121594
131	0x3a115400	0.0005543828
132	0xbcf5362b	-0.029933056
133	0x3d94d8f1	0.07267941
134	0x3d4ff4db	0.05077062
135	0x3da6199a	0.08110352
136	0xbd0d343b	-0.03447364
137	0x39ddfd56	0.00042341155
138	0xbbc6d7a5	-0.0060681873
139	0xbd90aec3	-0.07064583
140	0xbd45ee1e	-0.04832279
141	0xbce6b1b6	-0.028160911
142	0xbd26b6b8	-0.040701598
143	0x3cbc9f0b	0.023025056
144	0x3cc83f09	0.02444412
145	0x3d280605	0.041021366
146	0x3b2538cd	0.0025210858
147	0xbcb002c0	-0.021485686
148	0x3b8a5b7f	0.004222333
149	0x3c285dd0	0.010276273
150	0x3d47405a	0.048645355
151	0x3aff0656	0.0019456844
152	0x3cad4ca6	0.021154713
153	0xbd93ad45	-0.07210783
154	0xbd151422	-0.036396153
155	0xbda052d7	-0.078283004
156	0xbcb1e5fc	-0.02171611
157	0xbbf8e6da	-0.007595879
158	0x3d340782	0.043952473
159	0xbd371068	-0.04469338
160	0x3d4f12ae	0.050554924
161	0xbd2d3056	-0.042282425
162	0x3ca0b52d	0.019617641
163	0xbd69b7ee	-0.057060175
164	0xbc4e0e10	-0.012576595
165	0xbd82949b	-0.063760005
166	0xbd4768d7	-0.048683967
167	0xbb6fb5dc	-0.0036576902
168	0xbd9e820a	-0.07739647
169	0xbd7b80fe	-0.061402313
170	0x3cd96b12	0.026540313
171	0x3d284850	0.041084588
172	0x3d8751a9	0.06607372
173	0x3d6d43a1	0.057925824
174	0x3d35e834	0.0444109
175	0xbda7d44d	-0.0819479
176	0x3c06677f	0.008203386
177	0x3cfa1209	0.030526178
178	0x3c0ab1b1	0.0084652165
179	0xbcd0b628	-0.025477484
180	0x3d1cb509	0.038258586
181	0x3d362e5c	0.044477805
182	0x3d910d6e	0.0708264
183	0xbd20db87	-0.039271858
184	0xbd6e3b0a	-0.058161773
185	0xbd34b1b5	-0.044114787
186	0x3d83d71e	0.06437515
187	0x3ca2bcb8	0.019865379
188	0xbd9eb9d1	-0.077502854
189	0xbd23737e	-0.039905064
190	0x3d045ddc	0.032316074
191	0xbd6e4b38	-0.058177203
192	0x3d25deae	0.040495567
193	0xbd629f39	-0.055327628
194	0xbb97a32b	-0.0046276054
195	0x3cbb76cb	0.022883793
196	0xbcea229a	-0.028580952
197	0xbd34041e	-0.04394924
198	0xbd734f3a	-0.05940173
199	0x3cb2b364	0.021814056
200	0x3c6c874a	0.014436552
201	0xbd530333	-0.051516723
202	0x3d398b84	0.045299068
203	0x3d0b349e	0.033985727
204	0x3d85a2c3	0.06525185
205	0x3d051cc3	0.032498132
206	0x3d9cea8b	0.07661923
207	0x3d8f60e0	0.07000899
208	0x3d5ca6ad	0.053869892
209	0xbd81a6b4	-0.06330624
210	0x3d1d07ae	0.038337402
211	0xbd9c4c89	-0.076317854
212	0xbcd4329c	-0.025903039
213	0xbd9783ea	-0.073982075
214	0xbc3178bc	-0.010832008
215	0x3bbab647	0.0056979987
216	0xbd1ac38a	-0.037784137
217	0xbca3fbcb	-0.020017525
218	0xbd1aa13b	-0.037751418
219	0xbd77a3fa	-0.060459115
220	0xbc6632d0	-0.014050201
221	0x3d8df52a	0.06931527
222	0x3cc68ab3	0.024236059
223	0xbd9525a6	-0.072825715
224	0x3d99c0aa	0.07507451
225	0x3cddfdd2	0.02709857
226	0x3d3e0b0b	0.04639725
227	0x3d146c35	0.036236007
228	0x3bababc8	0.005238984
229	0xbd5d147a	-0.053974606
230	0x3c0684d6	0.0082103815
231	0xbd91feda	-0.07128687
232	0xbd3ed1b7	-0.04658672
233	0xbd460879	-0.048347924
234	0xbd62a0dc	-0.05532919
235	0xbd8b296b	-0.06795009
236	0x3bb7839d	0.0056004063
237	0x3d326714	0.043555334
238	0x3d2eb1c2	0.04264999
239	0x3d83bde7	0.064327054
240	0x3d197840	0.037468195
241	0xbc75d38e	-0.015004052
242	0x3cb476b8	0.022029266
243	0xbb0e465a	-0.0021709413
244	0xbc92ab5d	-0.017903978
245	0xbd203786	-0.03911545
246	0x3d99ec1b	0.07515737
247	0xbd24d771	-0.040244523
248	0x38ac0759	8.202968e-05
249	0x3d8bf387	0.068335585
250	0xbd97b8f3	-0.07408323
251	0xbac79a12	-0.0015228412
252	0xbd138d75	-0.036023576
253	0x3d806a42	0.06270267
254	0x3d81d1a4	0.06338814
255	0xbce325ed	-0.027728045

features.2.bias f4 [32]
0	0xbdb071a4	-0.08615425
1	0xbd4f3d19	-0.050595377
2	0x3d5b408c	0.053528354
3	0x3d5f8b1d	0.05457603
4	0xbd5ee66c	-0.054418966
5	0x3ab3e3fc	0.0013724561
6	0x3c7fc048	0.015609808
7	0x3d358afe	0.044322006
8	0x3d777629	0.06041542
9	0x3d28270a	0.041052856
10	0xbc4201c6	-0.011841243
11	0xbd8dadc6	-0.0691791
12	0x3ce05dd6	0.027388494
13	0xbd353f2a	-0.04424969
14	0xbd4d1add	-0.050074447
15	0xbd44efaf	-0.048080143
16	0x3d709f5c	0.058745727
17	0xbd5bd0a0	-0.053665757
18	0x3ca20ffd	0.019783014
19	0xbd557c7c	-0.05212067
20	0xbd984ec4	-0.07436898
21	0xbda871d9	-0.0822484
22	0xbdb32243	-0.08746769
23	0x3d3cba74	0.046076253
24	0xbc968d68	-0.018377975
25	0xbda1487f	-0.07875156
26	0x3cc2e1ab	0.023789247
27	0xbcb5ce25	-0.022193024
28	0x3c7296f5	0.014806499
29	0x3d8fdd05	0.07024578
30	0x3d575dad	0.05257957
31	0x3c0dcdb4	0.0086550005

classifier.weight f4 [2, 512]
0	0xbd046e66	-0.032331847
1	0x3ce2a9b0	0.027668804
2	0xbb503e15	-0.0031775285
3	0xbd298ea5	-0.041395802
4	0x3c49765e	0.012296287
5	0x3c08d434	0.008351374
6	0x3cb5e4cd	0.022203827
7	0x3c11b75d	0.008893815
8	0x3b2168c9	0.0024629107
9	0x3c0e30c8	0.008678623
10	0xbc53a96b	-0.01291881
11	0xbc13bbf5	-0.00901698
12	0xbd081f6f	-0.033233102
13	0xbc8341b8	-0.016022548
14	0xbbe6c69e	-0.00704272
15	0x3c896dcd	0.01677599
16	0xbbaab2ad	-0.005209288
17	0x3c8229c9	0.015889065
18	0xbbd3725a	-0.0064528408
19	0xbbb9a749	-0.005665694
20	0x3ad35e3e	0.0016126109
21	0xbd0b2861	-0.033974055
22	0x3cb18970	0.02167198
23	0xbc9fdc12	-0.019514117
24	0x3cb790c0	0.02240789
25	0x3b65aa53	0.0035044148
26	0xbc8fc0e0	-0.017548025
27	0xbca8df8e	-0.020614412
28	0xbbb41df4	-0.0054967348
29	0x3cc47312	0.023980651
30	0x3cc71926	0.024303984
31	0xbcd4f63d	-0.025996322
32	0xbc05e538	-0.008172326
33	0x3c88bf6a	0.016692836
34	0xbd000663	-0.03125609
35	0xbc32dcbb	-0.010916884
36	0x3cfeb90b	0.031094095
37	0xbd288e1f	-0.041151162
38	0x3cb2b12f	0.021813003
39	0x3d305f2a	0.043059506
40	0x3cd01709	0.025401609
41	0xbc8ac30b	-0.016938707
42	0xbd0c0969	-0.03418866
43	0xbd10f403	-0.035388958
44	0x3c258807	0.010103232
45	0xbcfdec44	-0.03099645
46	0x3d2bf800	0.041984558
47	0xbbd1ad67	-0.006398845
48	0xbbba288a	-0.005681102
49	0x3c575bca	0.013144443
50	0x3c06202b	0.00818638
51	0xbc3919d7	-0.011297665
52	0x3d10b17b	0.03532551
53	0x3c3113a2	0.0108079035
54	0xbc4b43f6	-0.01240634
55	0x3d0141b8	0.031556815
56	0xbcf43978	-0.02981256
57	0xbc4b727f	-0.012417435
58	0xbd212b11	-0.039347712
59	0xbca0e2c8	-0.019639388
60	0xbcc2b6cd	-0.023768807
61	0x3c287ce3	0.010283682
62	0x3c885e79	0.01664661
63	0x39d82394	0.00041225238
64	0x3c9577f8	0.018245682
65	0xbd1b644d	-0.03793745
66	0xbabc97cf	-0.0014388504
67	0x3bf250df	0.0073948945
68	0x3d26d4eb	0.0407304
69	0xbca5dfc0	-0.020248294
70	0x3cddc7a6	0.027072739
71	0x3c8e5f57	0.017379446
72	0x3cfc89f3	0.030827498
73	0x3c5a0a29	0.013308086
74	0xbcf2bb5a	-0.029630352
75	0xbd03bdf3	-0.03216357
76	0x3a5e4dd1	0.00084802235
77	0xbb8b89dd	-0.004258378
78	0x3cf005c5	0.029299626
79	0xbd092f5d	-0.033492435
80	0x3cb805da	0.022463728
81	0xbcd0f5b0	-0.025507778
82	0x3c62c126	0.0138399955
83	0xbd09f21f	-0.03367817
84	0x3ca51921	0.020153584
85	0xbc039763	-0.008031699
86	0xbc1fb2a6	-0.009747183
87	0xbcd34ed7	-0.02579443
88	0xbd1b97a0	-0.037986398
89	0x3c6236eb	0.013807039
90	0x3cfb9431	0.030710312
91	0x3c0cf8a2	0.008604201
92	0x3c7cabe1	0.0154218385
93	0x3bd3e4bb	0.006466476
94	0x3cf070b3	0.029350614
95	0x3ca3e1ed	0.02000519
96	0xbce5dcbb	-0.028059354
97	0x3d10da51	0.035364453
98	0x3d2548ec	0.040352747
99	0xbd059810	-0.03261572
100	0x3caa064d	0.020754958
101	0xbcd7c22c	-0.026337706
102	0x3cab7c09	0.020933168
103	0x3c829bb2	0.015943382
104	0x3c935f47	0.017989768
105	0xbccd764d	-0.025080824
106	0xbd3dff9d	-0.04638635
107	0xbd25c69b	-0.040472608
108	0xbd397e1f	-0.045286294
109	0x3cf42cbf	0.029806493
110	0xbc7b376a	-0.015333036
111	0x3c0006ae	0.007814093
112	0x3c721a1c	0.014776733
113	0x3cb3d366	0.021951389
114	0xbb7aa5ac	-0.003824572
115	0xbc4e7568	-0.012601234
116	0xbd5e9a46	-0.054346345
117	0xbd423bd4	-0.047420338
118	0xbd66960a	-0.056295432
119	0x3c9ce03b	0.01914989
120	0xbc63c311	-0.013901488
121	0x3c36fa33	0.011168051
122	0x3a9d6ef3	0.0012011215
123	0xbd660700	-0.05615902
124	0xbceab374	-0.028650023
125	0x3cbea744	0.023273118
126	0xbd5a9fbc	-0.05337499
127	0x3cd8a4a1	0.026445689
128	0xbc85e1a6	-0.01634295
129	0x3c37e83b	0.011224802
130	0xbcaaf62c	-0.020869337
131	0x3cadc17a	0.02121042
132	0x3d0f1c71	0.034939233
133	0x3c588471	0.01321517
134	0xbcdde310	-0.02708581
135	0x3cfbb2b2	0.030724857
136	0x3c18ee17	0.009334109
137	0xbcccd00d	-0.02500155
138	0xbc87a0a3	-0.01655609
139	0x3cacb40d	0.021081949
140	0x3b1777fb	0.0023112285
141	0x3c885541	0.016642215
142	0xbb83c4ac	-0.004021248
143	0x3d01719d	0.03160249
144	0xbcb85d55	-0.022505442
145	0xbc44e34e	-0.012017084
146	0xbcfae438	-0.030626401
147	0xbb85be97	-0.004081558
148	0x3c952f1e	0.018210944
149	0xbcb9a323	-0.022660797
150	0xbce2af0f	-0.027671365
151	0x3d05b63f	0.032644507
152	0xbceef424	-0.02916915
153	0xbd1398de	-0.036034457
154	0xba81aa53	-0.000989268
155	0x3c0c1aed	0.0085513415
156	0xbc6eebce	-0.014582587
157	0x3c58e877	0.013239018
158	0xbcf71a33	-0.03016386
159	0x3ce711e7	0.028206779
160	0x3c3e06cc	0.0115983
161	0xbcf4b208	-0.029870048
162	0xbc0cb344	-0.008587662
163	0x3d6f1fee	0.05838006
164	0xbc75d9f1	-0.015005575
165	0x3caaf2fb	0.020867815
166	0x3bfad9fb	0.00765538
167	0x3d80a2d6	0.062810585
168	0x3d51afd8	0.05119309
169	0x3d2f4639	0.04279158
170	0x3d3acb4c	0.045604035
171	0x3d5c1228	0.053728253
172	0x3d028e8e	0.031874232
173	0xbc82a344	-0.015946992
174	0xbc4cb8a8	-0.012495197
175	0x3b8458e3	0.0040389164
176	0xbbc80c8b	-0.006105011
177	0x3afbda18	0.0019214777
178	0xbd1a006c	-0.03759806
179	0x3ce61fa0	0.028091252
180	0xbcd62f76	-0.026145678
181	0x3ccf50d9	0.025307106
182	0xbc35ad54	-0.011088688
183	0x3c8fb363	0.017541593
184	0xba344bcf	-0.00068777514
185	0x3d10382f	0.03520983
186	0xbd1264ee	-0.035740785
187	0x3bfe12cd	0.007753706
188	0x3cc37993	0.023861682
189	0x3d270177	0.04077288
190	0xbd24ab2e	-0.040202312
191	0xbd1b7d4a	-0.03796128
192	0x3c91f047	0.017814768
193	0x3cccb430	0.024988264
194	0xbc925bc2	-0.01786602
195	0xbd0cce14	-0.03437622
196	0xbd0ebd34	-0.034848407
197	0xbcaf9c3a	-0.0214368
198	0xbcfdb423	-0.030969685
199	0xbc3d9a11	-0.011572377
200	0xbd417dcb	-0.047239106
201	0xbb612c5c	-0.0034358716
202	0xbcc2e4c1	-0.023790719
203	0xbd1462cf	-0.036227044
204	0xbc064edc	-0.0081975125
205	0xbc582572	-0.013192521
206	0xbc300bde	-0.010745017
207	0x3d135a60	0.03597486
208	0xbd306e97	-0.043074217
209	0xbd15625e	-0.036470763
210	0xbcf0a734	-0.029376604
211	0xbd2f8038	-0.04284689
212	0xbcca9a94	-0.024731912
213	0x3c3fc974	0.011705745
214	0xbc3a5e2d	-0.011374992
215	0xbd516fa3	-0.051131856
216	0x3c916607	0.017748846
217	0x3c84e9f8	0.016224846
218	0x3cacf1fe	0.021111485
219	0x3b7a00ce	0.0038147452
220	0xbd1cc1c4	-0.038270727
221	0xbd2f92ac	-0.042864487
222	0xbd0ff676	-0.035147153
223	0xbd107ae2	-0.03527344
224	0x3d14628e	0.0362268
225	0xbbf8559b	-0.0075785643
226	0xbd128003	-0.035766613
227	0x3bd225cb	0.0064131967
228	0xbbcbddfd	-0.0062215314
229	0xbc4d1930	-0.012518212
230	0xbcb94820	-0.0226174
231	0xbc01ea30	-0.00792937
232	0x3d0b8bd3	0.034068894
233	0x3c56ebb3	0.0131177185
234	0xbc2c18dc	-0.010503974
235	0xbba06109	-0.00489438
236	0x3ce01861	0.027355375
237	0xbc3b5259	-0.011433207
238	0xbd127bd0	-0.035762608
239	0x3cab5b7f	0.020917652
240	0xbc29fa2a	-0.010374585
241	0x3d283320	0.04106438
242	0xbce83c26	-0.028348994
243	0x3d2fc721	0.042914513
244	0xbd0e3b76	-0.034724675
245	0xbd0389fb	-0.03211401
246	0x3b670b53	0.0035254552
247	0xbd17c42e	-0.037052326
248	0x3d165382	0.036700733
249	0x3d08865e	0.033331268
250	0xbd25a180	-0.04043722
251	0x3cad02bc	0.021119468
252	0xbcaedc36	-0.02134524
253	0x3d1560c0	0.03646922
254	0x3beb97be	0.00718972
255	0xbcbf6830	-0.02336511

classifier.bias f4 [2]
0	0xbcf40cb0	-0.029791206
1	0x3cfb5c69	0.030683713
