models/global_model.pth (torch, 27258 bytes, 6 tensors)

features.0.weight f4 [16, 3, 3, 3]
00000000: bd6e 193e 8254 263e 42a9 2dbd b8c9 373e
00000010: 32ad 21bd aa1a 2a3d 9a5f babd 20fc ec3d
00000020: c27c 303e fb9f 0ebe aa3b 2d3e d839 1b3d
00000030: 1b8b 133e 1019 e53c eaec c13d 77f4 cebc
00000040: 8adf 193e 7daa f83c 9f61 b2bd c727 543d
00000050: 9000 b0bd f574 a2bc 8579 9abd f986 053e
00000060: d1c1 18be 1f17 b0bd 0f5e 53bd 4738 e9bd
00000070: e6dd a33c fac4 40be d4f3 333e ef6a 25be
00000080: 9a1f 1a3e be1c 0b3d b0fb 77bd c889 f73d
00000090: 04a7 fa3c f8d5 1f3e 5d20 b13c 92e1 75bd
000000a0: 2e85 563d 9610 53bd 583e a73d f1a2 303e
000000b0: f834 e53d f095 a8bd a13f e73d f777 143d
000000c0: 2710 cc3d 584f ecbd a71f 41be ed5d 94bd
000000d0: 6d30 15be 58ab 233e e3bb 603d bd19 a23d
000000e0: 38fd 763d 6437 80bb 35a6 193e 3299 0cbe
000000f0: 3946 3d3c 0416 07be 9ac0 703d 20e4 88bd
00000100: 983a 6f3d 0280 26bd 6ade 223e 5ac3 eabd
00000110: 7537 ecbd f13b ecbd 78ac 303e af30 823d
00000120: 170d 3d3e f236 23be d10b 44be 16c2 1abe
00000130: 0425 05be 2c7c 9e3d 62f9 8b3d ba2b 233e
00000140: 23b3 ccbd 1d58 06be 6288 d03d 9600 a0bd
00000150: 2c36 ef3d 0628 3cbd 9ccc e03d c11d 19be
00000160: 5e7d c7bd 0af6 6e3d bca5 263d 8222 49bd
00000170: c47e ea3d 21f8 053e 1aee 0ebe 18a8 d2bd
00000180: d072 343e 3e1c 85bd 8612 8cbd ccae 3ebe
00000190: 2a5f e2bd 2688 433d 1018 d0bc f55d 0fbe
000001a0: 294c 893b 379d 06be 2a83 27be e1b3 d9bd
000001b0: 227a 2cbe a438 f2bd 6a40 493e b2e2 143d
000001c0: 6c7e 823d 6e64 33be 006e 01be b0d3 73bd
000001d0: d1a9 0c3d b767 2dbe e89b a1bd 8835 e4bd
000001e0: 19cf 0b3a 880a 8abd 9c89 17bc 2c8a 05be
000001f0: 51b9 02be 76ac ddbd 90e9 86bd e848 17be
00000200: e36a 293e c271 1cbd 28f6 2d3e 867b 833d
00000210: 9ae0 26be f8d6 0c3e b7bb 47bd 5c18 8bbd
00000220: 44ae 1dbe aa0d 3ebe 98fb 783d 9111 16bd
00000230: dc0e a43d 6eea 1bbe bfd6 173e de4f 0bbe
00000240: f21e e3bc cde4 3a3d 8a8e d63d b39a 243e
00000250: 1aa1 383e a888 17be 7125 5c3d fc5e 9fbd
00000260: 5cae 86bc 6d86 0dbe 9a67 393e 64c0 0abe
00000270: 3c5a de3d 60aa 953d 62ea 8a3d e065 c9bd
00000280: ccb8 383e 3210 433d 31a0 c73c a3e7 2dbe
00000290: d41d a53d f624 f1bc e86e b5bd bafd 283e
000002a0: 7188 2d3d 2130 dbbd bcbc c8bd d2d3 0cbc
000002b0: d9c3 dd3d 8dcb 45bd 228b e0bd db21 86bd
000002c0: 4288 12be e80d 8d3d c6b8 183e 2b73 39be
000002d0: 8f91 353d a8fa ca3d 65dc 0d3d 3f5f 8dbd
000002e0: 74d5 cc3d 0c75 ce3d 1f5f 923d 2ea4 0cbd
000002f0: 84f3 52bd 3e72 b83c 1e5d 03bd 7319 63bd
00000300: 48e3 ff3d fd56 2b3e 2778 8cbc 51a4 28bd
00000310: 64fb 9a3b 0a17 1dbc 03c9 413d 6d33 613d
00000320: 35ee 31be 8056 8fbd 7205 273e b296 9b3d
00000330: 9407 0cbc 2a82 ebbd c214 efbd 7f97 2ebe
00000340: ad32 79bd 21f5 883d c630 ff3d 0cdb b93d
00000350: 3646 2cbe 3625 e9bd d146 e9bc f98e 403e
00000360: 580f e43c eb23 4cbd 910f a33d ac1e 96bd
00000370: a01b ffbd 8cd6 0f3e 1437 b3bd e605 1ebd
00000380: 840b 44be 76e4 033e 644e 153e 90a4 8f3d
00000390: 3b69 09be c47e 42be 220e 20be 4ef4 123e
000003a0: 523a bd3d 98d5 253e 177a ce3d a281 473d
000003b0: ca04 f7ba 41df 15be d8d7 28be 0054 38be
000003c0: 5358 a13d 5082 c1bd 7aa4 1ebd 02d3 dabd
000003d0: 41f0 09bd 4c64 09be 720a f4bd 515d 8f3d
000003e0: 7419 51bd ea59 003e 31a3 63bd 7e3d 0abe
000003f0: 2cc1 f5bc 2e13 bebd 5a1d 6fbd 762e 35be
0.1498365 0.16243175 -0.042397745 0.17948043 -0.039471813 0.041529335 -0.09100266 0.115715265
0.17235091 -0.13928215 0.16917291 0.03789696 0.14408533 0.027966052 0.09469016 -0.025263054
0.1502668 0.030354733 -0.08710026 0.051795747 -0.08593857 -0.01983116 -0.07542709 0.13039769
-0.14917685 -0.0859816 -0.051603373 -0.11387687 0.02000327 -0.1882514 0.17573482 -0.16154073
0.15051118 0.033962958 -0.060542762 0.120868266 0.030597217 0.15608966 0.021621877 -0.060029574
0.052373104 -0.05152949 0.08166188 0.17249657 0.111917436 -0.08231723 0.11291433 0.03624722
0.09964018 -0.11538571 -0.1885973 -0.072444774 -0.14569254 0.15983331 0.054866683 0.079150654
0.060300082 -0.003912853 0.15004809 -0.13730314 0.011552387 -0.13191992 0.05877743 -0.066841364
0.05840549 -0.04064942 0.15905157 -0.114630416 -0.11534015 -0.115348704 0.17253292 0.06356942
0.18462025 -0.15938929 -0.19145133 -0.151131 -0.13002402 0.07738528 0.06834675 0.15934649
-0.09995105 -0.1311955 0.10182263 -0.07812612 0.11680254 -0.045936607 0.10976526 -0.14952756
-0.09740709 0.05834011 0.0406854 -0.049105175 0.1144996 0.13082935 -0.13958016 -0.102859676
0.17621922 -0.064995274 -0.068394706 -0.18621367 -0.11053307 0.047737263 -0.025402099 -0.14000686
0.004189987 -0.1314591 -0.16358629 -0.10630012 -0.16843465 -0.118272096 0.19653478 0.036349006
0.06371769 -0.1751878 -0.12639618 -0.059528053 0.034341637 -0.16934095 -0.07891065 -0.11143023
0.0005333289 -0.0674029 -0.009249117 -0.1304099 -0.12766005 -0.1082391 -0.06587517 -0.14773905
0.1654468 -0.038194425 0.16988432 0.064200446 -0.16296616 0.13753879 -0.048763003 -0.067917556
-0.15398508 -0.185599 0.060786813 -0.036637846 0.08010647 -0.15226147 0.14828013 -0.13604686
-0.027724717 0.045628358 0.10476406 0.16074638 0.18030205 -0.14798224 0.053746644 -0.07781789
-0.016440563 -0.1382081 0.18105927 -0.13549954 0.108570546 0.07307887 0.06782986 -0.09833884
0.18039244 0.047622867 0.024368377 -0.16982894 0.0806233 -0.02943657 -0.08859044 0.16503039
0.04236645 -0.10702539 -0.09801623 -0.008595424 0.108283706 -0.048289824 -0.109640375 -0.06549426
-0.1430979 0.06887418 0.14914235 -0.1811034 0.04432827 0.0991109 0.034634013 -0.069029324
0.100016505 0.10080919 0.07147049 -0.03433626 -0.051501766 0.022515412 -0.032071225 -0.055444192
0.12494522 0.16732402 -0.017147137 -0.04117233 0.004729675 -0.0095880125 0.04731084 0.054980684
-0.17376025 -0.069989204 0.16310671 0.07597102 -0.008546729 -0.11499436 -0.11673881 -0.17049979
-0.060839344 0.0668738 0.12460475 0.09074983 -0.16823658 -0.113840505 -0.02847615 0.1880454
0.027839348 -0.04983894 0.079619534 -0.07330069 -0.12456441 0.14046687 -0.0875074 -0.038579844
-0.19145018 0.1288012 0.14580685 0.0701381 -0.13419048 -0.1899367 -0.15630391 0.14351007
0.09239639 0.16194761 0.100818805 0.04870761 -0.0018846032 -0.14635946 -0.16488588 -0.18000793
0.07878175 -0.09448683 -0.038731076 -0.10684778 -0.03367639 -0.13417166 -0.11916055 0.070002206
-0.051049665 0.125343 -0.055575553 -0.1350002 -0.029999338 -0.09281002 -0.0583776 -0.17693505

features.0.bias f4 [16]
00000000: 60f3 94bd 9566 e13d 3386 1dbe e454 f83d
00000010: 5c68 90bd 66fc 0d3c 0ec5 1ebd b3a9 d33c
00000020: 3337 6ebd 25b0 153e 84f1 a3bb e040 1e3e
00000030: f876 3d3e 58a3 bbbd 82b6 0dbe 3a3d 1c3e
-0.072729826 0.11005894 -0.15383224 0.121255666 -0.07051155 0.0086661335 -0.038762145 0.025837755
-0.05815811 0.14617975 -0.005003156 0.15454435 0.18502414 -0.09162015 -0.13839152 0.15257731

features.2.weight f4 [32, 16, 3, 3]
00000000: 6718 883d c572 80bd 31af b5bb 1e90 a5bd
00000010: ca15 89bd 9b9a 8e3c a1c7 c13c 2133 9c3c
00000020: 626b aebc 2400 a03d 00d9 543c 133a 46bd
00000030: 00e8 58bb 82ca ae3c 154b f83c 7251 6bbd
00000040: 4c9c 053d 6e6c 29bd 57d0 8dbd 5670 3abd
00000050: b097 a43d 52e5 913d 50d4 983d d35d 483d
00000060: 18ee 803d e1bf 36bc a6cf 3bbd a88c 2a3d
00000070: 80df 30bd ae5a 66bd abff d9bc 9043 8f3c
00000080: 9eb7 2f3d b493 04bd b6e5 48bd 8b2c 383c
00000090: 7631 49bd 9e3a 5ebd b0eb 313d e15a 65bc
000000a0: e0f3 9b3d 8605 a63d 7b30 cc3c ecf1 ea3c
000000b0: 0035 9d3c 4472 cb3a 04f1 a0bb 8200 0e3b
000000c0: edce 043d b867 a23d f3c2 b1bc 96a5 0fbd
000000d0: 53a9 97bc ad94 1fbd 3133 683c d821 893d
000000e0: 32b5 8b3d fb43 153d 8a6a 6dbd 0f56 31bd
000000f0: 0251 98bc 8c6c 47bc 26ad 233c 249e 99bd
00000100: 9e84 dd3c 72bd 7cbd 8456 4bbd 0d67 89bd
00000110: d8b6 993d a2be 9fbd 2ac0 843d e032 f1ba
00000120: 60c9 1ebc 267f 553d 9663 fcbb 9011 563d
00000130: 03ca 763d ae2c 94bd f056 033d 86df 803c
00000140: 06c8 923c b653 473c a1e1 b83c 069c 20bd
00000150: aa09 1cbc 25e4 a43d 4418 6b3d 1037 47bb
00000160: 6c84 a0bd 991d 8e3b 6070 68bd e2c8 8a3d
00000170: 1b38 4fbd 9628 c5bb 4c83 97bc 60f7 723c
00000180: 209a a03d a0bb 013c 20b0 453d 50a9 863d
00000190: 9ec6 8b3d c26a e2bc f4f4 8ebc 8de2 283d
000001a0: 9c7f b1bc 5ed5 243d 8d84 8bbc 9401 63bd
000001b0: feef 0a3d 8b54 513c d32e 183d ce40 aa3d
000001c0: 1f0a 693d eec9 a13d 2b27 923b 43cf 92bd
000001d0: 6474 6fbd d658 4ebd 6c1d 92bd 7961 1dbd
000001e0: 6865 9dbd aaf3 9cbd 3ba0 41bd 68e8 a9bd
000001f0: 4203 4bbd 5ebf 093d 6813 903d 6998 ccbc
00000200: 7e5c c7bc e08b 393d 199d 20bd 303f 1ebd
00000210: e160 583d 54c3 92bd d56c 473c 1cf6 953d
00000220: 125f 773c 5919 bf3c 6445 47bd 3277 bfba
00000230: 3128 783b fec0 993c bc4b 073d 300e 9a3d
00000240: e22d 7cbd 133b 9f3b 70f2 20bd 7cc3 82bd
00000250: 430a 8cbb d773 91bd 1ff9 763d ad19 453c
00000260: 7d4e 2ebd 8064 383d 6d31 9ebd d522 fabc
00000270: 60d1 70bc 866e 8dbd 78df 51bd 75cf 45bc
00000280: b9f5 843d 2a58 a83d 762d 593d 7ed1 4bbd
00000290: b84e 5fbd 8cf0 943d c789 f53c 5618 113b
000002a0: 01c6 383c 0c2a 89bd b6ee e3bc 6e49 a43d
000002b0: 1c5e a8bc 40fb 88bb b8b5 8dbd 4ade 40bd
000002c0: 5609 dfba be05 54bd 8250 29bc a3e8 0a3d
000002d0: 38f1 a6bd dcba af3c 41b1 61bd 9096 26bd
000002e0: 3a34 ee3c 56b3 873d 2694 babc 7ad7 19bd
000002f0: ab52 9abd 8f9f 32bd e558 93bd 162a 9fbc
00000300: 6edf 8f3c 88c6 9ebd 201f 963d 9c3a 533d
00000310: e02f a5bd 1004 25bd e20c d53c 0940 9abc
00000320: fbfa 2bbc b6d6 21bd 8b56 823d 4780 47bd
00000330: 9aac 8a3d 2c28 693b 3df1 783c c826 863d
00000340: 4337 49bc 74fa 3fbd 7ecb 46bc 81d3 8c3d
00000350: 9a48 78bd 38e6 9e3c 12e5 a4bd 814b 353d
00000360: 2c39 fc3c ad84 673b 787f 123d 0090 c438
00000370: b6e0 3c3d 6e1a 87bd ab80 48bc a36b 173d
00000380: e6f3 a93d 31ad 343d b39e 84bd a8ba 863d
00000390: e991 acbc bcb3 a9bc 33cd a0bd 54bb 4abc
000003a0: b694 613d 2fe9 493c 9bcf 46bd 1022 d23c
000003b0: ace4 dabc 52d1 9b3d 8421 94bd 40a3 d7bc
000003c0: 8eca a4bd 686d 06bd 8635 d73c dfa3 a83d
000003d0: d717 883c 7c80 ac3d a280 973c c9b5 4f3d
000003e0: e0ee 8d3d 434e 933d b0a4 34bd 6206 a23d
000003f0: 98c4 4e3d ae99 1fbd abe2 22bd 9571 86bd
0.066452794 -0.062718906 -0.005544566 -0.08084129 -0.06693609 0.017407706 0.02365476 0.019067349
-0.021291438 0.07812527 0.01299119 -0.048395228 -0.0033097267 0.021336798 0.03030924 -0.05745072
0.03261976 -0.041363172 -0.06924503 -0.04551729 0.080367446 0.071238175 0.074623704 0.048917603
0.06295413 -0.011154146 -0.045852326 0.041638047 -0.043181896 -0.056238823 -0.02661117 0.017488271
0.04289972 -0.032367423 -0.049047194 0.011241089 -0.049119435 -0.05425512 0.04343766 -0.013998718
0.07614875 0.08106522 0.024925461 0.02867981 0.019190311 0.0015521725 -0.004911544 0.0021667783
0.032423902 0.07929939 -0.021699404 -0.035070024 -0.018513357 -0.038960148 0.014172361 0.06695908
0.0682167 0.036441784 -0.05796293 -0.043294962 -0.018593315 -0.012171876 0.009990012 -0.07500866
0.027040776 -0.061704107 -0.049643055 -0.067091085 0.07505578 -0.07800032 0.06481965 -0.0018402003
-0.009691566 0.05212321 -0.0077023013 0.052262843 0.060251247 -0.072350845 0.032065332 0.015731584
0.017917644 0.012165954 0.022568526 -0.039211296 -0.0095237885 0.080513276 0.05739619 -0.003039781
-0.078377575 0.0043370244 -0.056747794 0.067765966 -0.050590616 -0.006016801 -0.018495224 0.014829487
0.07841897 0.007918268 0.04826367 0.065752625 0.068249926 -0.027638797 -0.017450787 0.04123168
-0.021667294 0.040242545 -0.017030979 -0.055421427 0.03392028 0.012776504 0.03715403 0.08313142
0.056894418 0.07899843 0.0044602356 -0.07168438 -0.058460608 -0.05037769 -0.07134518 -0.038423035
-0.07685357 -0.07663663 -0.04727195 -0.08296281 -0.049563654 0.033629768 0.070349514 -0.024975019
-0.024336096 0.04529941 -0.03921232 -0.03863448 0.052826766 -0.07166162 0.012171944 0.07322332
0.01509835 0.023327516 -0.04865016 -0.0014607667 0.0037865753 0.018768784 0.03303121 0.07522237
-0.061567195 0.004859337 -0.039293706 -0.06384942 -0.004273684 -0.07102173 0.060296174 0.012030047
-0.04255532 0.04501772 -0.07724271 -0.030534187 -0.014698356 -0.06905846 -0.051238507 -0.012073387
0.064921804 0.08219941 0.05302187 -0.049760334 -0.05451843 0.07272443 0.029972924 0.002213975
0.011277677 -0.06697473 -0.027823787 0.08021818 -0.020552687 -0.004180342 -0.06919426 -0.04708699
-0.0017016332 -0.05176329 -0.010334136 0.033913266 -0.081514776 0.021451406 -0.055100683 -0.04067093
0.029077638 0.066260025 -0.02277572 -0.03755901 -0.07535299 -0.0436092 -0.0719469 -0.019429248
0.017562594 -0.077527106 0.073301554 0.051569566 -0.08065772 -0.040287077 0.02600712 -0.018829362
-0.01049685 -0.039511405 0.06364163 -0.04870632 0.067712024 0.0035576923 0.015194234 0.06550366
-0.012281242 -0.04686971 -0.012133477 0.06876279 -0.060616113 0.019396886 -0.08051504 0.04426146
0.03078898 0.0035326884 0.035766095 9.3728304e-05 0.04611274 -0.06596838 -0.012237708 0.036967885
0.08298473 0.04411048 -0.06475582 0.065785706 -0.02106567 -0.020715587 -0.07851639 -0.012373764
0.055073462 0.012323662 -0.04853783 0.025651008 -0.026720367 0.07608284 -0.07232955 -0.02632296
-0.08046447 -0.03281918 0.02627064 0.08234381 0.01661293 0.08422944 0.018493954 0.050710473
0.069303274 0.071926616 -0.04410237 0.07911374 0.050480455 -0.03896492 -0.03976695 -0.06564633

features.2.bias f4 [32]
00000000: 981e 19bd b209 863c ae2e 15bc 455d e2bc
00000010: 2181 14bd dfc1 893c 5b8d 91bd d633 b13d
00000020: ca63 20bc 349b a13c 4b10 f03c 2bdc 07bd
00000030: 56b0 863d 440c 423b fc4f 073c 5cbd a1bd
00000040: 46df 2a3c 10cd 0b3d bb94 383c b7df b5bb
00000050: 168d 873d c6f3 8e3d 7cab 713d 33e2 03bc
00000060: e45f 533c 5b74 70bd 8b86 86bd a68e 7fbc
00000070: 3389 353c aa53 3dbd 9241 95bd 39f7 2a3d
-0.037382692 0.016362045 -0.009105368 -0.027632365 -0.03625596 0.016816078 -0.071070395 0.08652465
-0.009789417 0.019727327 0.029304644 -0.033168953 0.06576602 0.0029609362 0.008258816 -0.078974456
0.010429209 0.03413111 0.011265929 -0.0055503505 0.06618707 0.0698009 0.05900143 -0.008049536
0.01290128 -0.058704715 -0.06568631 -0.015597975 0.011080074 -0.046222366 -0.07287897 0.041739676

classifier.weight f4 [2, 512]
00000000: 9ce6 483c 9a8d 06bd cd7e d33c f87b 15bd
00000010: 1754 f33c becf a23c f881 93bc ac95 1e3d
00000020: 853b eabc 2324 c0bc 9a45 023d 9e7d 75bc
00000030: fe06 b0bc d503 6a3b ce5e 32bc 6aef c53c
00000040: 9e4d f53c c9bb 5b3c 2fd4 563b 3485 9e3b
00000050: bb1f a5bb 4a00 97ba a215 b4bb 1c44 c33c
00000060: 04a8 973c 88e2 30bc 7357 293c 38de 7cbb
00000070: c1b2 1a3c b291 f53c 1110 15bd 50e2 d6b7
00000080: ee2a 54bc 8ea0 3fbd 624c 3fbd c59e 0fbc
00000090: 2e89 e63c 46f1 06bd bf06 303c 2b43 b33c
000000a0: 5467 13bd 2bdf 783c af12 9c3b 872c 32bd
000000b0: b0b9 8dbb e54c 3abd d743 0f3d 8c72 8c3c
000000c0: 883c 4e3c ed07 f23c 39e2 f03c b288 213d
000000d0: 1496 623c 2f92 14bd b219 163d 5fe6 fe3b
000000e0: 65d4 b2bc f4bf aabc 2c45 173d 0466 ae3b
000000f0: 0a8c e23c 1095 88ba cae4 143d cbe0 16bd
00000100: 5712 9b3b 4395 9b3b a851 cebb 2037 093d
00000110: b098 493b a6b2 5dbb cea9 c73c 3329 19bc
00000120: 6d17 0ebc 90ef 2cbd 51f1 c7bb 7e03 d9bc
00000130: 7ed2 a13c 4793 053d 37cc 40bd 9dd3 00bd
00000140: 3f85 1b3d 5d5f c0bc c437 0e3d db86 1f3d
00000150: 2c61 7ebc 4ef1 24bd 7e4b 903c c114 803c
00000160: 1b12 0b3d 45fd f83a cc39 a03c df84 2dbd
00000170: 8d01 df3a 0682 c23b a478 be3c 4179 e6bc
00000180: a857 dfbb 85cc d7bc 09a8 f3bc 9bb6 963c
00000190: b837 a33b c3da 8f3c 88e7 83ba e74c 8eba
000001a0: a6af 86bb 488f c33c 7482 fabc da15 1c3c
000001b0: 4aa5 bc3c 9ffa d13c 1dbc adbc 9e2d 0c3d
000001c0: 08d9 13bd 9c81 863c 92f0 f13c dd16 abbb
000001d0: e131 e43b 7a38 46bd a4d9 c4bc 7d3d c4bc
000001e0: 4485 43bd 9335 82bc 9415 c73c b038 31bc
000001f0: fcd1 173d cbe5 3dbd 37fa 343c 1283 013d
00000200: b84e 183d 3a9a bbbc ee27 3bbd 496b b4bc
00000210: 611a dd3c 3c5e f8ba c258 153d 56ed 1bbd
00000220: 380d 09bd c922 893c d75b 193c a85f 0dbd
00000230: c4a6 103d 8105 bbbc be2b 2ebd aa5d d43b
00000240: b4ea 04bd e66f ebbc fa6f 04bd 1a43 8d3b
00000250: e04f 543c 8bf7 b43c 6c21 06bd 2014 95bc
00000260: 7c26 093d 64c1 f8bc 5201 c2bc ee39 86bc
00000270: 5e69 40bd acd9 25bd 1b56 013d a2aa 8739
00000280: 0336 443b 4aec 483c 37ff b03c dbd6 c73c
00000290: 071c d83c aece 4d3c 06bf e53c 4f46 c13c
000002a0: 5f80 4fbc 8575 aaba c0cc e8bc b5e8 1dbd
000002b0: f504 163d 967f 1cbd e4cd 06bd 0286 44bd
000002c0: 6455 1dbd a012 c63b da9d 8c3c 9d6f 27bd
000002d0: a2b9 c4b9 a01b 0fbd d0f8 f43b be7b ca3c
000002e0: b54d acbc 693b acbc de7f e83c f8eb fbbc
000002f0: b237 53bc 36ef 17bd ea9c f43c 69f6 523c
00000300: 72d3 8fbc bcd1 003d 8065 2b3d 21c7 933c
00000310: 50aa ffbc 3de3 1dbc 9c9c 113d de8c 033d
00000320: 620c 6ebc 6092 ef3c 0fd5 ecbc 813b 423c
00000330: d191 1f3d 916b 033c 25d7 0fbd 8a2b 593c
00000340: 2a63 983c 2f65 ca3c 65b3 0fbd f8f5 64bc
00000350: b4b2 07bc 0dda 5fbc 5b4c 81bc dccb b3bc
00000360: cd22 173c b89f 763c 2c6e 6ebc 861a eb3c
00000370: cf37 cdbb 4445 9c3b e5ee a53b d1ad acbc
00000380: 2e85 e2bb 163d 20bc 6500 433c 1fe2 e9bc
00000390: ddb6 cebc 367d 42bd 12ef c4bc 673f 183c
000003a0: 0817 fc3c df32 46bd a69e a9bc b08d bc3c
000003b0: 3219 ecbc 061e cd3c eb7f 45bb 26ce 3dbd
000003c0: b32a 8d3b f683 f4bc 7892 b03b 2d12 30bd
000003d0: 53e2 1c3d c201 b5bc 8182 cd3c 5b99 febc
000003e0: 7abc 24bd 8e29 663c e8a1 bf3c ed4b 66bb
000003f0: e6b0 25bd 00fc 7fbc da3b 0bbd 6ace 163c
0.012262013 -0.032849886 0.0258173 -0.03649518 0.029703183 0.01987445 -0.01800631 0.038716957
-0.028592834 -0.023454731 0.03180466 -0.014983563 -0.02148771 0.003570785 -0.010886861 0.024162013
0.029944237 0.013411471 0.003278028 0.0048376564 -0.005039183 -0.0011520472 -0.005495743 0.023836188
0.018512733 -0.010796197 0.010335791 -0.00385846 0.009442032 0.0299767 -0.036392275 -2.5616173e-05
-0.012949688 -0.046783976 -0.046703704 -0.008765881 0.028141584 -0.03294494 0.010743796 0.021882614
-0.035987213 0.015189926 0.0047629694 -0.043499496 -0.004325114 -0.04548349 0.034976806 0.017144464
0.012587674 0.029544795 0.029404746 0.039437003 0.013829727 -0.036272224 0.0366456 0.007778927
-0.021829793 -0.020843484 0.0369312 0.00532222 0.027654666 -0.0010420401 0.036351003 -0.036835473
0.004732411 0.004748018 -0.0062963553 0.033499837 0.0030761175 -0.0033828407 0.024372961 -0.009348202
-0.008672577 -0.042220652 -0.006101765 -0.026490923 0.01975369 0.032611158 -0.047069754 -0.03145181
0.03796887 -0.023482973 0.03472115 0.038946968 -0.015526097 -0.04026919 0.017614122 0.015634896
0.033952814 0.0018996379 0.01955881 -0.042363044 0.0017014012 0.00593591 0.023250885 -0.02813399
-0.0068158694 -0.02634264 -0.029743211 0.01839762 0.0049810074 0.017560368 -0.0010063509 -0.0010856659
-0.0041102944 0.023872033 -0.030579783 0.009526694 0.023028035 0.0256322 -0.021207863 0.03422319
-0.03609565 0.016419224 0.029533658 -0.0052212314 0.006963954 -0.048393704 -0.02402956 -0.023955101
-0.047734514 -0.015894687 0.024302281 -0.010816738 0.03706549 -0.046361726 0.011045984 0.03161914
0.037184447 -0.02290069 -0.045692377 -0.022023814 0.026990118 -0.0018948982 0.0364616 -0.038068138
-0.033459872 0.01674022 0.009360275 -0.034515053 0.03531529 -0.022829773 -0.042522185 0.006480892
-0.032450393 -0.02873988 -0.03233335 0.0043109776 0.012958497 0.022090694 -0.032746717 -0.018198073
0.033483967 -0.030365653 -0.02368227 -0.016385045 -0.046975486 -0.04049079 0.031576257 0.00025876338
0.002993942 0.012263367 0.02160607 0.024394443 0.026380552 0.012561483 0.028045189 0.023593096
-0.012664883 -0.0013004994 -0.028417945 -0.038552005 0.03662582 -0.038207613 -0.032911196 -0.047979362
-0.038411513 0.0060447007 0.017165113 -0.040877927 -0.0003752234 -0.034938455 0.00747595 0.024717208
-0.021033147 -0.021024423 0.028381284 -0.030752167 -0.012891697 -0.037093364 0.029859979 0.012876132
-0.01755688 0.03145002 0.041844845 0.018039288 -0.031209141 -0.009636697 0.035549745 0.032116763
-0.0145293195 0.029244602 -0.028910188 0.011855007 0.03895742 0.008021251 -0.035117287 0.013255009
0.018601973 0.024706451 -0.035083193 -0.013974659 -0.008282352 -0.013662827 -0.01578348 -0.021947794
0.009224606 0.015052728 -0.014552634 0.02869917 -0.0062627564 0.0047689993 0.005063879 -0.021078976
-0.006912849 -0.009780189 0.0119019495 -0.028550206 -0.02523368 -0.04748269 -0.024039779 0.00929246
0.0307727 -0.04838836 -0.020705532 0.02301678 -0.028820608 0.02503873 -0.003013606 -0.046339177
0.0043080687 -0.02984808 0.005388554 -0.042986084 0.038301777 -0.022095565 0.025086643 -0.031078985
-0.040218808 0.014047993 0.023392633 -0.003514047 -0.040451907 -0.015624046 -0.033992626 0.009204486

classifier.bias f4 [2]
00000000: 10ad 9fbc c517 6d3c
-0.019491702 0.014470999
