models/source_model.pth (torch, 27258 bytes, 6 tensors)

features.0.weight f4 [16, 3, 3, 3]
000000 61 2f be bd 10 54 10 bb 65 89 3a 3e d2 c2 0d ba
       -0.092863806 -0.0022022761 0.18216474 -0.00054077536
000010 d2 3b db bd 5e dd 1c be bc 38 1d be ce cb 3c 3e
       -0.10704769 -0.1531882 -0.15353674 0.1843712
000020 2d 87 29 bd 06 a9 a3 3d a1 01 35 3d 4f f4 11 be
       -0.04138868 0.07991223 0.044191007 -0.14253353
000030 ca 12 29 be 51 de 98 3c 6a 79 64 bd ea d0 b5 bd
       -0.16511074 0.018660696 -0.055779852 -0.08877738
000040 83 bc be bd 3e 3a 02 be ea ed 33 be e7 5a 30 3e
       -0.093132995 -0.1271753 -0.17571226 0.17222176
000050 6e 91 be bc ba 7f 14 be 14 f7 f6 bd b8 3f 00 be
       -0.023262706 -0.14501849 -0.12058845 -0.12524307
000060 18 0d 3f 3e 8f 4c 0d 3c bd 5d db bd cb 21 c7 3d
       0.18657339 0.00862421 -0.107112385 0.09723242
000070 80 45 31 be 48 dc 4f bd 7d 85 0e bd 2b b1 37 3e
       -0.17311668 -0.050747186 -0.034795273 0.17938678
000080 c0 8d e1 bb cc 6e 40 3d 68 c9 7a 3c e6 16 71 bd
       -0.006883353 0.046980664 0.015306808 -0.05885973
000090 6b 62 c5 3d 0b e3 cf 3c 22 57 16 be d8 55 22 be
       0.09637912 0.025376817 -0.14681676 -0.1585306
0000a0 a1 5a bc 3d de 15 0c be d6 56 ec 3d ec c7 37 3e
       0.091969736 -0.13680217 0.1154 0.17947358
0000b0 07 80 29 be 13 f2 32 bd 58 58 78 3d df 00 39 be
       -0.16552745 -0.04368789 0.060631126 -0.18066739
0000c0 59 2e 33 be b4 4e 71 3d e4 90 04 3d 14 3d b0 bd
       -0.17498149 0.058912948 0.03236474 -0.086054
0000d0 8a 7a 38 be 42 3a fd 3d f0 a7 3b 3e 5d d7 20 3e
       -0.18015495 0.123646274 0.18325782 0.15707155
0000e0 53 13 32 3e 66 3c e7 bd fa b0 17 be 3b 69 ff bd
       0.17390184 -0.11290817 -0.14813605 -0.12471243
0000f0 05 c0 5e 3c cb e5 2f be f5 d6 09 be ff 0a c3 3d
       0.013595586 -0.17177503 -0.13460906 0.09523582
000100 ee ac 96 bd e1 01 2d be 54 c4 2e be 0e ed 4c bd
       -0.073572025 -0.16895248 -0.1706708 -0.05003076
000110 ca 47 e7 bd 40 52 a1 bc 74 ed c7 3d 8a 41 54 bd
       -0.112929896 -0.01969254 0.097620875 -0.051820315
000120 bd bc 4e bc b6 68 3f 3e f1 f5 31 3b c4 bc f8 bd
       -0.012618241 0.18692288 0.002715465 -0.12145379
000130 15 6c 0b 3d 82 63 02 bd 3b 7d f2 bd 1b 83 16 bd
       0.034038622 -0.03183318 -0.11840292 -0.036746126
000140 50 4b 3c bd eb 68 40 bd ac c1 09 3e 2d d5 03 3d
       -0.04597026 -0.046975058 0.13452786 0.032185722
000150 55 f4 8d bd a4 c8 c9 bd 38 e7 dc bd c2 70 2f 3d
       -0.06931368 -0.09852722 -0.10786289 0.042832144
000160 5e f9 c6 bd 3d c3 00 bd 7e 2f d0 3c 07 81 08 3e
       -0.09715532 -0.031436194 0.025413271 0.1333047
000170 d0 e4 20 be 0e 60 a5 bd 7c 79 9c bd cf 09 0a 3d
       -0.15712285 -0.080749616 -0.07640359 0.03370076
000180 4e c1 e4 3d 95 9e 9a 3d 3e 91 25 be 24 ca 08 3e
       0.111696824 0.07549778 -0.16168687 0.1335836
000190 b2 c5 0f be f3 84 a0 3d 0c c3 8d bd 22 1d aa bd
       -0.14040259 0.07837858 -0.06921968 -0.08306338
0001a0 f1 a4 09 3c 15 d7 1f be d4 6f a6 3d c5 28 23 3d
       0.0084011415 -0.15609391 0.08126798 0.039833803
0001b0 d7 fc 18 be 2f 72 e5 bd 06 ff 08 bd de 79 96 3c
       -0.14940201 -0.112034194 -0.033446334 0.018368658
0001c0 fb 40 e9 bd 2d 93 fc bd 03 c7 32 be 80 e9 ab 3d
       -0.11389347 -0.12332759 -0.1745873 0.08394146
0001d0 e5 d1 93 bd 18 b7 81 3d 9d 24 30 be 0a c7 e4 bd
       -0.072177686 0.063337505 -0.17201467 -0.11170776
0001e0 b6 7a 5a bd 8b 89 fc 3d 18 e5 26 be ac ec d0 bc
       -0.053339683 0.12330922 -0.1629833 -0.025503479
0001f0 e2 e8 e4 bd a8 f4 b7 3d ea 4a 77 3d f7 dc 34 3d
       -0.11177231 0.08982211 0.060374178 0.04415604
000200 5a 16 f9 bd 27 f6 db bd 6d 09 c2 3d ea fe 3a be
       -0.12162466 -0.10740309 0.09474454 -0.18261304
000210 1f 3d 40 bd 96 52 b1 bd c7 35 f8 bc fb e9 1a bc
       -0.04693329 -0.0865833 -0.03029908 -0.009455199
000220 b1 3a 8e bd fd db 89 3d 91 2e d6 3c cb e6 6a 3c
       -0.06944788 0.067314126 0.026145251 0.014337252
000230 04 81 91 3d 7a d1 c1 bc ce 74 a5 3d eb ea 16 3e
       0.07104686 -0.023659457 0.08078919 0.14738052
000240 eb d9 00 3e 29 ff 27 3e e2 16 e2 bc 4a d6 2b 3c
       0.12583129 0.1640593 -0.027598802 0.010488102
000250 74 55 08 3e 0a b1 38 3e b1 f9 b8 3d e9 52 33 be
       0.13313848 0.18036285 0.09032 -0.17512096
000260 f1 9f 03 be a2 b3 6c bd 3d 5b ef 3c ac 9d 21 3e
       -0.12853982 -0.0577885 0.02921831 0.15782803
000270 4e 5a 30 3d 4a 9c 39 be e7 76 27 3d cd 61 11 3e
       0.04305487 -0.18126026 0.04088488 0.14197464
000280 58 c7 39 3e 8f fc 35 bd 36 70 f5 bd 87 8e 83 bd
       0.1814245 -0.04443031 -0.11984293 -0.06423669
000290 3c 21 63 3d 85 ef 2a be ec 7d 7c 3d 1f 9f 0d bd
       0.055451617 -0.16692932 0.061643526 -0.034575578
0002a0 ae 48 41 be 58 91 c4 bd 17 df e0 bd 9f 59 7c bd
       -0.18875381 -0.095980346 -0.10980051 -0.061608907
0002b0 2c 0b 12 be 3a f4 c4 bd bc db 01 3e 08 ad 99 3d
       -0.14262074 -0.09616895 0.12681478 0.07503706
0002c0 ab a2 a4 3c b3 8a 2a 3e b4 81 95 3b b3 26 15 be
       0.020097097 0.16654472 0.004562581 -0.14565544
0002d0 f4 51 04 be 00 23 23 be fb 0f 9e bc 5d 79 6f bd
       -0.12921888 -0.1593132 -0.01929473 -0.05846535
0002e0 b3 76 2d be 86 64 6e 3c cc 9c 04 3e d7 73 2d 3e
       -0.16939811 0.014550334 0.12950438 0.1693872
0002f0 53 67 f7 bd 7a ea 90 bd d7 5f 3e be d8 b6 1d bd
       -0.120802544 -0.07075973 -0.18591247 -0.03850445
000300 27 30 b7 bc 55 ad 08 be bb 8e 32 3d a8 9d 84 bd
       -0.022361828 -0.13347371 0.04359315 -0.06475383
000310 0a 47 44 3e 42 8c e2 3d 53 c8 9b bd d8 4f 22 be
       0.19167724 0.11061908 -0.07606568 -0.1585077
000320 95 7e e6 3d 74 54 39 be 30 df 25 3e c2 fd 08 3d
       0.11254612 -0.18098623 0.1619842 0.033445127
000330 23 f8 19 be 31 25 84 3d 79 79 9a bd 0d de 1d be
       -0.15036063 0.06452406 -0.075427 -0.15416737
000340 14 52 68 3d 9f 48 2c 3d 2f 6c a6 3c b9 b2 0d 3d
       0.0567189 0.042061444 0.020315258 0.03459427
000350 3b a5 36 3e 12 d2 0b 3d c9 b8 da bc c3 c3 9d bc
       0.17836468 0.034135886 -0.02669944 -0.019258386
000360 37 95 0e 3d 67 4f 8e 3d 48 e2 a1 bd 05 2a e7 3c
       0.03481027 0.069487385 -0.07904488 0.028218279
000370 1b ee e9 ba 8b 07 ff bc 70 cd 68 bd 86 a0 0f 3e
       -0.001784745 -0.031131526 -0.056836545 0.14026079
000380 b0 07 c7 3d cb 2b e6 bc 10 3c 08 3e 23 93 7c bd
       0.09718263 -0.028097054 0.13304162 -0.061663758
000390 c3 72 d1 bc 33 4f 24 be 28 95 8f 3d b9 27 85 bc
       -0.025567418 -0.16045837 0.07010871 -0.016254293
0003a0 b8 41 33 3e b8 cc 09 bd be 47 1d be 46 b7 cf 3c
       0.17505538 -0.0336425 -0.15359399 0.025355946
0003b0 ca 12 88 3b 10 f3 37 be 55 0b 81 3d b1 7b 13 be
       0.0041526305 -0.17963815 0.063009895 -0.14402653
0003c0 27 cf 93 bc de 39 02 3d 4b 89 7d bd a8 45 74 3c
       -0.018043114 0.031793468 -0.06189851 0.0149091855
0003d0 53 eb 30 3e d5 50 1b bd a7 df b4 3d ca 32 27 bd
       0.17277269 -0.037918884 0.08831721 -0.04081992
0003e0 e3 9c 1f 3d 35 b2 45 3d eb d2 c2 bc 24 78 1e be
       0.03896798 0.048265655 -0.023782214 -0.15475518
0003f0 07 55 59 3d 25 24 ba bd 6f eb 34 3e 6c 7e 81 3d
       0.053059604 -0.09088925 0.17667936 0.06322941

features.0.bias f4 [16]
000000 0f 95 22 3e 9c 84 12 bc 1c 19 3b be 91 85 0c 3e
       0.15877174 -0.008942749 -0.18271297 0.13722827
000010 b5 07 c6 3d 2c 7e 06 3e ac d6 1c bc f9 3a 1b 3c
       0.09669439 0.13134068 -0.009572666 0.009474509
000020 13 aa 1b be 18 85 3f be 70 8a 14 be 2e bf 17 3e
       -0.15201597 -0.18703115 -0.14505935 0.14819023
000030 28 ce 2e be db bb ba 3d e4 34 03 bd 78 3d 24 be
       -0.1707083 0.09117862 -0.032032862 -0.16039073

features.2.weight f4 [32, 16, 3, 3]
000000 6c a4 67 3d 33 ea 34 bc b8 32 16 bd 13 dd a4 bd
       0.05655329 -0.011042166 -0.036669463 -0.08049979
000010 3d 37 89 bd b2 dc 97 3d 68 ed 03 bd af a6 5d bc
       -0.06699989 0.07415141 -0.03220883 -0.01352851
000020 8e 96 4d bd 6b 2b b1 3b d6 44 0c bb 50 e8 69 bd
       -0.05019241 0.005406787 -0.0021403334 -0.057106316
000030 2b c0 99 3c c9 c8 65 bc e4 be 98 bd 9c 4b 9c 3d
       0.01876839 -0.014024922 -0.074582845 0.07631609
000040 cc 18 9f bd a6 e1 d2 bc 96 c8 42 3d d0 79 54 3d
       -0.077684015 -0.025742363 0.047554575 0.051873982
000050 46 72 fd 3c b3 ac 2e bd eb c9 27 3d 76 cd 80 bc
       0.030938279 -0.042645168 0.04096405 -0.015722971
000060 6b c0 67 bd 7b 6e 82 bd 9e 0d 90 bd b6 b3 a0 3c
       -0.05657999 -0.06368729 -0.07033847 0.019616943
000070 c2 72 4d 3c 14 5d 8a 3d f4 69 a5 3d e9 f5 41 bd
       0.012539567 0.067560345 0.080768496 -0.04735366
000080 8d f4 90 3b da 72 76 bd 09 d2 a1 3d 67 a2 2c bd
       0.004423684 -0.060168125 0.07901389 -0.042147066
000090 e3 f4 19 3d 12 3c a8 bd 30 0d f4 3c 2a 8d 83 bd
       0.037587058 -0.082145825 0.029791445 -0.06423409
0000a0 e8 d7 11 3d 24 1b a9 3d d0 97 93 bd 50 7e 9d 3d
       0.035606295 0.0825713 -0.0720669 0.07690108
0000b0 cb 6f 91 bd 3f 8b 24 bd 4d 62 3a bd 62 76 99 3d
       -0.07101401 -0.040171858 -0.045503903 0.07493283
0000c0 77 86 23 3c c4 74 a8 bc 4a bb da 3c 93 6e 9c bd
       0.009980789 -0.02056349 0.026700635 -0.07638278
0000d0 36 46 8b 3d 79 5d 67 3d 80 3f a9 bd 07 11 9d bd
       0.06800501 0.056485627 -0.08264065 -0.07669263
0000e0 a0 84 37 bd ee 02 24 bd 40 7a 14 3d 96 f1 46 3d
       -0.044804215 -0.040041856 0.0362494 0.048570238
0000f0 e6 a2 f6 bc 68 68 25 3d 10 07 9e bd 55 60 ea bc
       -0.030106973 0.040382773 -0.07716191 -0.028610388
000100 f6 57 2b bd b9 84 de 3d 22 bc de bc 77 e0 42 3d
       -0.041831933 0.108651586 -0.027189318 0.047577348
000110 23 07 a6 bd 00 cd 9e 3d 22 41 5d 3c ae 7d b9 bd
       -0.0810683 0.077539444 0.013504298 -0.090571746
000120 00 e3 43 3c 0a 55 3d bd 00 f3 96 bb c0 5d 58 bd
       0.0119559765 -0.046223678 -0.0046066046 -0.052823782
000130 12 67 12 3d 58 80 93 bd d6 d9 b4 bc 6f 75 a7 bd
       0.035742827 -0.07202214 -0.022076529 -0.081766956
000140 56 0b 50 ba c6 2b 05 bc 45 bd db bc 66 a3 4a bc
       -0.00079362595 -0.008128112 -0.02682365 -0.012368059
000150 ce 58 ca bc 0f ed 0b 3d 3f eb 3a 3d 11 24 8a bd
       -0.024700548 0.034161624 0.045634504 -0.0674516
000160 e1 a2 0a 3d e4 95 81 bd 88 e0 02 bb 3c bd 64 3b
       0.03384674 -0.063274175 -0.0019970257 0.0034902832
000170 4d c9 d6 bc 91 0b cb bc e1 b9 c0 bc 67 0c f1 3c
       -0.026219035 -0.024785789 -0.023526134 0.02942486
000180 9b f4 96 3d 99 97 31 3d 49 13 3f 3d 5f 76 be bc
       0.073708735 0.043357465 0.04664925 -0.023249803
000190 01 78 95 bd 4e e4 3b bb 7d c0 40 3c d7 f2 ab 3b
       -0.072982796 -0.0028670016 0.011764643 0.0052474546
0001a0 d3 3b 9f bd 1d 83 81 bd 85 6f b9 bc 16 ed 86 3d
       -0.077750824 -0.06323836 -0.022636184 0.06588189
0001b0 9e 00 96 3d 14 28 88 3d 38 71 58 bd a0 86 3c 3c
       0.073243365 0.06648269 -0.05284235 0.0115067065
0001c0 b0 d7 74 bd b0 a1 18 3d c0 f9 92 3c 56 1b e8 bb
       -0.059776008 0.037263572 0.017941356 -0.007083337
0001d0 83 d4 3f 3d 0b 31 a2 3d f7 e5 87 bd 61 81 bb ba
       0.046833526 0.079195105 -0.06635659 -0.0014305526
0001e0 04 fc 63 bd d9 82 7a 3c 07 57 ee 3a 71 3d 40 bd
       -0.055660263 0.015289986 0.0018183895 -0.046933595
0001f0 3a ac 92 3d 8f 5d 21 3d 2e 15 70 3d 20 36 81 bd
       0.07161756 0.039395865 0.05861395 -0.06309152
000200 eb 9d 6a bd 80 c9 f5 3c 63 91 2b 3d 06 78 a9 3c
       -0.05727951 0.03000331 0.0418867 0.020687114
000210 56 50 59 3b bb 0c 53 bd 3a 5b a0 bd 56 81 5a ba
       0.0033159456 -0.051525813 -0.078299 -0.00083353126
000220 78 ca 56 bd 4b b7 ee 3c e3 2d 89 3d 19 ec a6 bd
       -0.052439183 0.029140135 0.06698205 -0.08150501
000230 2a 41 04 bd 88 da 09 3d 72 83 8f 3d 4b 38 22 3c
       -0.032288708 0.033655673 0.07007493 0.009901117
000240 29 b2 03 bd f9 74 dc bc 08 98 7d bd 10 d0 26 bd
       -0.03215233 -0.026911246 -0.061912566 -0.040725768
000250 0f bd 7e 3c f4 5b 9c 3d 6b 16 c7 bc 99 e4 a4 bc
       0.015548005 0.07634726 -0.024302682 -0.020128535
000260 ef 23 97 3d 00 f1 02 3b 6b 0a cf bb ae 41 aa 3d
       0.07379901 0.0019980073 -0.0063183806 0.08313309
000270 ed aa 4c 3d b7 df 8d bd de ed 70 bd 08 8d 06 3d
       0.049967695 -0.06927436 -0.058820598 0.03284934
000280 4e 89 43 bd b8 cc 66 3d a8 c6 20 bd e6 85 a8 bd
       -0.047738366 0.05634758 -0.039251953 -0.08228664
000290 7e b8 00 bd 8e bf 0d bd 40 62 73 bd f0 ba 87 bd
       -0.031425945 -0.03460651 -0.05941987 -0.066274524
0002a0 66 c8 67 3d f6 52 c6 3c 70 02 32 bd a9 c2 75 bd
       0.0565876 0.02420948 -0.043459356 -0.060000096
0002b0 d1 d8 d2 3b 50 2c f6 3c a4 29 c9 bc 21 ff 7f bd
       0.006434538 0.030050427 -0.024555989 -0.06249917
0002c0 50 04 8c 3d 32 d9 30 bd a7 ff f5 bc 72 a2 91 3d
       0.0683676 -0.043175884 -0.030029131 0.07111062
0002d0 d0 f2 5a bd 53 6e a8 3d 48 89 0c bd c6 35 bb 3c
       -0.05345422 0.08224168 -0.03431061 0.02285279
0002e0 ae d2 7d 3d 56 e7 56 3c 0c 09 a7 3d ee 40 74 3d
       0.061968498 0.013116678 0.081560224 0.059632234
0002f0 08 e5 29 3d 3a c6 70 bd ac a6 84 bb 79 1b 68 3d
       0.041478187 -0.058782794 -0.004048189 0.056666825
000300 66 82 05 bd 00 48 94 3d 81 1b 83 3c 33 9e 8b 3d
       -0.03259506 0.072402954 0.016004326 0.068172835
000310 d6 b0 eb bc cc 54 41 bc 28 b7 0c bd 4c af a4 3d
       -0.028770845 -0.011800002 -0.03435436 0.08041248
000320 48 3e a6 3d f6 95 7a 3c 6b 7b 20 3c 2e 7a 2e 3d
       0.08117348 0.015294543 0.00979505 0.04259699
000330 de 70 10 3d 2e 15 29 3d eb 43 b7 3b d1 78 f0 3c
       0.03526389 0.041279964 0.0055928132 0.029354485
000340 b2 6d 26 3c c1 75 a2 3d 4b 0f 84 bd 59 c4 a2 3c
       0.010157989 0.07932616 -0.064482294 0.019869016
000350 77 a8 b2 bd e9 c3 9f bc 39 ed 47 3d 4d cf 85 3d
       -0.08723538 -0.019502597 0.048810218 0.0653368
000360 38 1e 9d 3d b8 e9 5e bb 48 09 3f bd d6 33 f8 bc
       0.076717794 -0.003401382 -0.04663971 -0.030298155
000370 99 c0 5d bd 56 9d 36 bc 52 01 9e bd d1 ab 3a 3d
       -0.054138754 -0.01114591 -0.077150956 0.045574013
000380 cb ee 3b 3c 44 44 1d 3d be ff 17 3d 1f 17 81 bd
       0.011470507 0.03839518 0.03710913 -0.06303238
000390 9d c9 ff 3b 1f bf 9c bd e2 3b 30 3d fa e4 00 3d
       0.0078060166 -0.07653641 0.04302586 0.03146837
0003a0 89 b4 fc bc 95 d5 10 bd 65 b0 da bc 3f a2 62 3d
       -0.030847805 -0.035359938 -0.02669544 0.05533051
0003b0 ab 91 8c bd e7 c5 b5 bd 88 2a 54 bd ba e9 43 3c
       -0.068637215 -0.088756375 -0.051798373 0.01195758
0003c0 81 98 2d 3c c4 43 2f 3d 4f 6a 37 3d ce b2 61 bd
       0.010595442 0.042789236 0.04477912 -0.055102162
0003d0 f6 4c 87 3d 58 14 f7 3a b1 b2 89 3d 23 35 1b bc
       0.06606476 0.0018850667 0.06723536 -0.009473118
0003e0 6c 7d 40 bd fd 2e 50 3d 2f 71 06 bd 6b 43 6a bb
       -0.04699461 0.05082606 -0.032822784 -0.003574575
0003f0 f0 92 37 3d 42 e2 91 bd eb 02 0a 3d 56 db 13 3d
       0.044817865 -0.071232334 0.03369419 0.036097847

features.2.bias f4 [32]
000000 32 5c 2b bd 0e 93 66 bd 8b 9c a9 bc 49 71 b9 bc
       -0.04183597 -0.056292586 -0.020704528 -0.022637026
000010 00 39 26 3d 86 e8 7d bd 98 74 1e 3d 70 48 35 3c
       0.040581703 -0.06198933 0.03868541 0.011064634
000020 fc 16 1e 3c 6b 99 3c 3c 28 fc 9c bc be db be bc
       0.009649035 0.011511187 -0.019163206 -0.02329814
000030 2b 8f 9a 3d 9e 93 37 3d ed ab ff 3c 94 e3 ab bd
       0.075468384 0.044818513 0.03120991 -0.083930165
000040 4e 66 e4 3c 89 86 7a 3c 76 30 65 3d b6 54 40 bc
       0.027880814 0.015290865 0.05595442 -0.011738947
000050 7b d7 fd bc e8 c5 aa 3d 46 f1 5d 3d 5e eb be 3c
       -0.030986538 0.08338529 0.054185174 0.023305591
000060 62 1d 96 bb 01 50 03 bd 26 91 8b bc 7d 1a 70 3c
       -0.0045811394 -0.03205872 -0.017036986 0.014654753
000070 bd c2 91 3d 32 0b 8c bd 63 cf 68 3d c3 85 a5 3d
       0.071172215 -0.06838073 0.056838404 0.08082154

classifier.weight f4 [2, 512]
000000 a8 1e 1d bc 1c b9 3c bd 40 3c 17 3d 54 94 9c 3a
       -0.009589829 -0.04607497 0.036922693 0.0011946061
000010 27 f3 0e bd 7e 58 0b 3d 16 ac ba 3c 1b f4 ad bc
       -0.034899857 0.03401994 0.022787135 -0.021234563
000020 be 04 ed 3c 25 c8 3e 3d 03 7a f1 3b 1d 4f 65 bc
       0.028932925 0.04657759 0.0073692813 -0.013995913
000030 aa 20 dc 3b b3 1a b4 bc e4 2a e5 3b 9f cd fd bc
       0.006717761 -0.021985387 0.0069936384 -0.030981837
000040 9f 63 30 3d 31 35 c5 bc 9c b7 09 3d a4 5b 35 3d
       0.043063756 -0.024073215 0.03362237 0.04427685
000050 74 53 d2 bc 03 f0 c2 bc 56 19 9b 3b e0 e3 04 3c
       -0.02567456 -0.023796087 0.004733245 0.00811097
000060 68 9d 97 3b 40 b8 20 bd 9f a4 36 3b 12 5c e2 bb
       0.0046269186 -0.039238214 0.0027869118 -0.0069079483
000070 3c d2 cb 3c 7c 8d 35 3d 7f a7 26 bd 2b b1 dc 3c
       0.024880521 0.044324383 -0.04068708 0.026939949
000080 ae 9b 29 3d d0 1f 8c bc 71 d6 b5 3c 79 99 e6 3b
       0.041408233 -0.017105013 0.02219698 0.0070373383
000090 db b1 16 3d 74 37 11 bd b0 a1 14 bd 1e 65 ca 3c
       0.03679071 -0.035453275 -0.03628701 0.02470642
0000a0 e6 4f ba 3c 9d f5 ac bb 71 a2 16 bd bd bd 86 3c
       0.022743177 -0.005278303 -0.03677601 0.016447896
0000b0 5c 5c e0 bc c0 80 26 bd 9d c0 d8 3c b5 50 18 bd
       -0.02738779 -0.04065013 0.026459033 -0.037186343
0000c0 aa 5a de bc 7a a8 17 bd e7 7a 2a bd 07 39 4f bc
       -0.027142841 -0.037025906 -0.041621115 -0.012647874
0000d0 54 30 18 3d e0 2d 4a bc e6 8b 78 bc b9 f0 ec 3b
       0.037155464 -0.012340039 -0.015170073 0.007230845
0000e0 40 4d 01 bd 65 13 c4 3b 95 e0 3b 3c 3d 44 f9 3c
       -0.031567812 0.0059837573 0.011467119 0.030428046
0000f0 a6 36 db 3b 9c 27 12 3d 36 22 5c bc ba fb d1 bc
       0.006689864 0.035682306 -0.013435891 -0.025632728
000100 8b 62 0d 3d 35 aa 3a bd 51 ce 08 3c 3e 99 3b bb
       0.034517806 -0.04557248 0.008349971 -0.0028625275
000110 e6 7e 21 bc 39 f3 4a bd 1a 47 3a bd 10 90 11 3c
       -0.009856915 -0.04954836 -0.045477964 0.008884445
000120 8e dd 03 3d e9 cd eb ba 84 da 48 3c 04 b2 af bc
       0.032193713 -0.0017990443 0.012259129 -0.02144719
000130 35 47 2f bd 15 52 b6 bc dc cc de bc 6a d8 d5 3b
       -0.042792518 -0.022255937 -0.027197294 0.0065260427
000140 ce b9 18 3d 67 fd 8e 3c c1 62 97 3c 4a ac 06 3d
       0.037286572 0.017454816 0.018479707 0.03287915
000150 48 5f a2 bc c9 39 12 3d bc 7b 07 3d c6 66 0a bd
       -0.019820824 0.03569964 0.033076987 -0.03378942
000160 c4 e0 75 3c 45 bf cf bb 48 0c cb bc dc 93 03 3d
       0.015007202 -0.00633994 -0.02478613 0.03212343
000170 33 a4 2d bd fe 2f f9 ba 9a 83 19 bc 9d c5 0f bd
       -0.04239292 -0.0019011495 -0.009369755 -0.035100568
000180 ab 4c 1a 3d d0 1c 42 bc 68 07 04 bd ec f6 6a 3b
       0.037670773 -0.01184769 -0.032233626 0.0035852743
000190 07 ca f7 bc b8 3b bf bc 10 e9 a1 3c eb 89 24 bd
       -0.030247701 -0.023343906 0.019764453 -0.04017059
0001a0 a3 7e 34 bd 8f 47 81 bb a1 2f 30 3d 77 7c 16 3d
       -0.044066083 -0.003945298 0.043014172 0.036739793
0001b0 46 4a 28 3d 41 1c 1d bd eb 63 e2 bc be 5a db 3c
       0.041086458 -0.038357023 -0.027635535 0.026776668
0001c0 15 8f c8 3c 7b c2 d2 bc de 55 d2 3b 47 b5 0d 3d
       0.02448229 -0.025727501 0.0064189276 0.034596708
0001d0 be 0f 37 3b 45 10 4d bb 74 bc ee 3c 09 e4 56 3c
       0.0027932967 -0.0031290215 0.029142596 0.013115891
0001e0 87 7e 0c bd 39 a5 9d 3c e6 98 13 3d 58 54 7d bc
       -0.034300353 0.019243823 0.036034487 -0.015462004
0001f0 05 cb c5 38 75 69 c9 3c 67 6e 60 bc 0e 80 bb 3c
       9.431507e-05 0.024586419 -0.013698197 0.02288821
000200 55 75 ef bc 16 1f 20 3d b9 de bb ba 37 c0 e1 bb
       -0.029230753 0.039092146 -0.0014333344 -0.006889369
000210 5f 37 04 bd 37 f9 6f 3c c7 9e 22 3c 5a b5 02 3c
       -0.03227937 0.01464682 0.009925551 0.007977808
000220 a8 d2 07 bd 13 ae ba 3c 59 5e 22 3d 4b 6f 00 bc
       -0.03315988 0.022788083 0.03964076 -0.007839034
000230 a2 40 b1 ba a0 fe 1f 3d b0 c0 a8 bc f8 12 e8 3c
       -0.001352329 0.03906119 -0.020599693 0.028329358
000240 f0 58 cb bb 67 5c d3 bc 68 b1 c9 3c 1f f9 35 bc
       -0.0062056705 -0.025800897 0.024620727 -0.011106758
000250 82 93 88 3c b7 86 b0 ba 61 57 df ba 7a c7 af 3c
       0.0166719 -0.0013467883 -0.0017039591 0.021457423
000260 a3 cd 8e bc af e8 d1 bc ff a3 a9 3c bb 1f 65 3c
       -0.01743204 -0.025623647 0.020708082 0.013984616
000270 79 49 09 bd b7 40 d3 bc bd c9 dc 3c 21 a7 41 3a
       -0.033517335 -0.025787694 0.026951665 0.000738727
000280 65 c0 2c 3c 62 d7 4e bb af 5c 26 3c d6 e9 3a bc
       0.010543917 -0.0031561484 0.010153933 -0.01140829
000290 67 c7 af 3c 7a 62 9e 3c 32 31 81 3c 96 8c 50 bb
       0.021457387 0.019334067 0.015770528 -0.0031822077
0002a0 1f d4 2c bd 19 8c 92 bb 44 1c e6 3a 5f 67 2a 3d
       -0.042194482 -0.0044722673 0.0017556031 0.04160249
0002b0 8c 86 2a 3c 02 cc 56 3c 26 00 91 3c 97 02 15 3d
       0.010408055 0.013110163 0.017700266 0.036379423
0002c0 be ae c2 3c 02 46 9a bc 74 3f 3d 3c 21 63 b6 bb
       0.023764964 -0.01883221 0.011550773 -0.0055660163
0002d0 35 e9 93 bc 74 38 2d 3d ce 8c 83 3c 62 67 81 bc
       -0.018055538 0.042290166 0.016058352 -0.015796367
0002e0 92 c7 2f bd 19 a7 e3 3a bc c6 cb 3a 5d 91 71 bc
       -0.042914934 0.0017368525 0.0015546898 -0.01474413
0002f0 b3 d5 07 bc 45 c6 33 bb 4d 61 3a bc 76 83 42 bc
       -0.008290696 -0.002743141 -0.011375737 -0.011872163
000300 08 98 1b 3d 32 30 0b 3c 97 3f 5f 3b 5f 67 0e bd
       0.037986785 0.008495377 0.0034065002 -0.03476655
000310 20 e5 dd bc 11 f4 58 bb b8 f9 6c 3b fb 7c 91 bc
       -0.027086794 -0.003310446 0.0036159586 -0.01775979
000320 be e7 27 bd 6b 40 8d bc c7 99 04 3d 9e bd 8d 3c
       -0.04099249 -0.017242631 0.032373216 0.01730233
000330 c1 e1 19 3d 05 b8 bd bc 5a e7 b8 39 a3 b6 da 3c
       0.03756881 -0.023159036 0.00035267585 0.026698416
000340 b3 fb 48 3c da 3b 43 ba ce 95 25 bd f4 48 a9 bc
       0.012267041 -0.0007447578 -0.040426068 -0.02066467
000350 8e 1c e5 3c 85 61 9b 3b 87 17 bc bb 12 26 5a 3c
       0.027967717 0.00474185 -0.0057401094 0.013314741
000360 cf 0a a3 bc ba 4f 23 3d b6 c3 dd bb 18 5e ce bc
       -0.019902615 0.039870955 -0.0067677153 -0.025191352
000370 ce 7b 34 3c b8 6c c0 bc 77 61 a7 3c 5b 2e 8e bc
       0.011015845 -0.023489341 0.020432217 -0.017356088
000380 99 3b 97 bc 38 3e 1d 3d 1e 55 e1 bc 7e 5d a4 3a
       -0.018461036 0.038389415 -0.027506407 0.001254007
000390 52 14 05 bd 74 e9 08 bd 79 b7 ee bc 1c f5 a0 bc
       -0.032490082 -0.033425763 -0.029140221 -0.019648127
0003a0 0a a0 07 bd 8d 24 15 3d 1c e9 bd 3c 0e e5 0c bd
       -0.03311161 0.03641181 0.023182444 -0.03439813
0003b0 c1 23 10 bd 27 cd be bc ad 72 b7 3c 47 30 05 3c
       -0.035190348 -0.023291184 0.022393549 0.008129186
0003c0 7b a3 17 bc ae 31 7a bc 97 02 b6 bc 8b 86 e5 bb
       -0.009255285 -0.015270634 -0.022218032 -0.007004564
0003d0 04 c2 1d 3d 7b 7e 08 3d 01 34 e0 bc 72 76 cd bc
       0.038515106 0.033323746 -0.027368547 -0.025080893
0003e0 b4 37 37 3b 20 91 f0 bc 87 b0 b5 3c 2d 52 34 3d
       0.0027956786 -0.029366076 0.022178901 0.04402368
0003f0 20 35 01 bd 95 bd 08 ba 81 79 d0 bb cd 9d 53 bc
       -0.031544805 -0.0005216238 -0.0063621406 -0.012916041

classifier.bias f4 [2]
000000 4b 78 04 3d 36 6b 8a b9
       0.032341283 -0.0002640129
